…
lters=64, kernel_size=(3, 3), activation='relu', padding='same'),\n    MaxPooling2D(pool_size=(2, 2)),\n\n    # 展平并连接到全连接层\n    Flatten(),\n    Dense(units=100, activation='relu'),\n    Dropout(0.5), # 添加Dropout层防止过拟合\n    Dense(units=10, activation='softmax') # 输出层，10个类别\n])\n\nmodel.summary()\n\nModel: \"sequential_2\"\n\n\n\n┏━━━━━━━━━━━━━━━━━━━━━━━━━━━━━━━━━┳━━━━━━━━━━━━━━━━━━━━━━━━┳━━━━━━━━━━━━━━━┓\n┃ Layer (type)                    ┃ Output Shape           ┃       Param # ┃\n┡━━━━━━━━━━━━━━━━━━━━━━━━━━━━━━━━━╇━━━━━━━━━━━━━━━━━━━━━━━━╇━━━━━━━━━━━━━━━┩\n│ conv2d_4 (Conv2D)               │ (None, 28, 28, 32)     │           320 │\n├─────────────────────────────────┼────────────────────────┼───────────────┤\n│ max_pooling2d_4 (MaxPooling2D)  │ (None, 14, 14, 32)     │             0 │\n├─────────────────────────────────┼────────────────────────┼───────────────┤\n│ conv2d_5 (Conv2D)               │ (None, 14, 14, 64)     │        18,496 │\n├─────────────────────────────────┼────────────────────────┼───────────────┤\n│ max_pooling2d_5 (MaxPooling2D)  │ (None, 7, 7, 64)       │             0 │\n├─────────────────────────────────┼────────────────────────┼───────────────┤\n│ flatten_2 (Flatten)             │ (None, 3136)           │             0 │\n├─────────────────────────────────┼────────────────────────┼───────────────┤\n│ dense_4 (Dense)                 │ (None, 100)            │       313,700 │\n├─────────────────────────────────┼────────────────────────┼───────────────┤\n│ dropout_2 (Dropout)             │ (None, 100)            │             0 │\n├─────────────────────────────────┼────────────────────────┼───────────────┤\n│ dense_5 (Dense)                 │ (None, 10)             │         1,010 │\n└─────────────────────────────────┴────────────────────────┴───────────────┘\n\n\n\n Total params: 333,526 (1.27 MB)\n\n\n\n Trainable params: 333,526 (1.27 MB)\n\n\n\n Non-trainable params: 0 (0.00 B)\n\n\n\n解释：\n\nConv2D: 2D卷积层。\n\nfilters: 滤波器的数量（即输出特征图的深度）。\nkernel_size: 滤波器的大小 (e.g., (3,3) or 3)。\nactivation: 激活函数。\npadding='same': 使得输出特征图的空间尺寸与输入相同（假设步长为1）。\ninput_shape: 只在第一层需要，对于28x28x
…
